…
I0106 13:16:32.937386 13295 net.cpp:322] The NetState phase (0) differed from the phase (1) specified by a rule in layer softmax
I0106 13:16:32.937391 13295 net.cpp:322] The NetState phase (0) differed from the phase (1) specified by a rule in layer accuracy
I0106 13:16:32.937455 13295 net.cpp:58] Initializing net from parameters: 
name: "height_cnn"
state {
  phase: TRAIN
  level: 0
  stage: ""
}
layer {
  name: "traindata"
  type: "Data"
  top: "data"
  top: "label"
  include {
    phase: TRAIN
  }
  data_param {
    source: "../caffe_01_convert/data"
    batch_size: 64
    backend: LEVELDB
  }
}
layer {
  name: "slice_data"
  type: "Slice"
  bottom: "data"
  top: "data1"
  top: "data2"
  slice_param {
    slice_point: 10
    axis: 1
  }
}
layer {
  name: "conv1"
  type: "Convolution"
  bottom: "data1"
  top: "conv1"
  param {
    lr_mult: 0.1
  }
  param {
    lr_mult: 0.2
  }
  convolution_param {
    num_output: 32
    pad: 0
    kernel_size: 7
    stride: 2
    weight_filler {
      type: "xavier"
    }
    bias_filler {
      type: "constant"
    }
  }
}
layer {
  name: "relu1"
  type: "PReLU"
  bottom: "conv1"
  top: "relu1_conv1"
}
layer {
  name: "pool1"
  type: "Pooling"
  bottom: "relu1_conv1"
  top: "pooling1"
  pooling_param {
    pool: MAX
    kernel_size: 2
    stride: 2
  }
}
layer {
  name: "reshape"
  type: "Reshape"
  bottom: "pooling1"
  top: "pool1"
  reshape_param {
    shape {
      dim: 0
      dim: 1
      dim: 1
      dim: -1
    }
  }
}
layer {
  name: "reshape"
  type: "Reshape"
  bottom: "data2"
  top: "reshaped_data2"
  reshape_param {
    shape {
      dim: 0
      dim: 1
      dim: 1
      dim: -1
    }
  }
}
layer {
  name: "concat"
  type: "Concat"
  bottom: "pool1"
  bottom: "reshaped_data2"
  top: "concat_data"
  concat_param {
    axis: 3
  }
}
layer {
  name: "ip1"
  type: "InnerProduct"
  bottom: "concat_data"
  top: "ip1"
  inner_product_param {
    num_output: 500
    weight_filler {
      type: "xavier"
    }
    bias_filler {
      type: "constant"
    }
  }
}
layer {
  name: "relu4"
  type: "PReLU"
  bottom: "ip1"
  top: "relu4_ip1"
}
layer {
  name: "ip2"
  type: "InnerProduct"
  bottom: "relu4_ip1"
  top: "ip2"
  inner_product_param {
    num_output: 5
    weight_filler {
      type: "xavier"
    }
    bias_filler {
      type: "constant"
    }
  }
}
layer {
  name: "softmax"
  type: "Softmax"
  bottom: "ip2"
  top: "softmax"
  include {
    phase: TRAIN
  }
}
layer {
  name: "loss"
  type: "SoftmaxWithLoss"
  bottom: "ip2"
  bottom: "label"
  top: "loss"
  include {
    phase: TRAIN
  }
  loss_param {
    ignore_label: -1
  }
  softmax_param {
    axis: 1
  }
}
I0106 13:16:32.937525 13295 layer_factory.hpp:77] Creating layer traindata
I0106 13:16:32.937963 13295 net.cpp:100] Creating Layer traindata
I0106 13:16:32.937973 13295 net.cpp:408] traindata -> data
I0106 13:16:32.937989 13295 net.cpp:408] traindata -> label
I0106 13:16:34.499673 13301 db_leveldb.cpp:18] Opened leveldb ../caffe_01_convert/data
I0106 13:16:34.508967 13295 data_layer.cpp:41] output data size: 64,11,40,40
I0106 13:16:34.520002 13295 net.cpp:150] Setting up traindata
I0106 13:16:34.520081 13295 net.cpp:157] Top shape: 64 11 40 40 (1126400)
I0106 13:16:34.520087 13295 net.cpp:157] Top shape: 64 (64)
I0106 13:16:34.520092 13295 net.cpp:165] Memory required for data: 4505856
I0106 13:16:34.520112 13295 layer_factory.hpp:77] Creating layer slice_data
I0106 13:16:34.520154 13295 net.cpp:100] Creating Layer slice_data
I0106 13:16:34.520161 13295 net.cpp:434] slice_data <- data
I0106 13:16:34.520175 13295 net.cpp:408] slice_data -> data1
I0106 13:16:34.520186 13295 net.cpp:408] slice_data -> data2
I0106 13:16:34.520232 13295 net.cpp:150] Setting up slice_data
I0106 13:16:34.520239 13295 net.cpp:157] Top shape: 64 10 40 40 (1024000)
I0106 13:16:34.520243 13295 net.cpp:157] Top shape: 64 1 40 40 (102400)
I0106 13:16:34.520246 13295 net.cpp:165] Memory required for data: 9011456
I0106 13:16:34.520251 13295 layer_factory.hpp:77] Creating layer conv1
I0106 13:16:34.520265 13295 net.cpp:100] Creating Layer conv1
I0106 13:16:34.520270 13295 net.cpp:434] conv1 <- data1
I0106 13:16:34.520277 13295 net.cpp:408] conv1 -> conv1
I0106 13:16:34.644858 13295 net.cpp:150] Setting up conv1
I0106 13:16:34.644889 13295 net.cpp:157] Top shape: 64 32 17 17 (591872)
I0106 13:16:34.644893 13295 net.cpp:165] Memory required for data: 11378944
I0106 13:16:34.644908 13295 layer_factory.hpp:77] Creating layer relu1
I0106 13:16:34.644918 13295 net.cpp:100] Creating Layer relu1
I0106 13:16:34.644923 13295 net.cpp:434] relu1 <- conv1
I0106 13:16:34.644929 13295 net.cpp:408] relu1 -> relu1_conv1
I0106 13:16:34.645018 13295 net.cpp:150] Setting up relu1
I0106 13:16:34.645025 13295 net.cpp:157] Top shape: 64 32 17 17 (591872)
I0106 13:16:34.645028 13295 net.cpp:165] Memory required for data: 13746432
I0106 13:16:34.645035 13295 layer_factory.hpp:77] Creating layer pool1
I0106 13:16:34.645041 13295 net.cpp:100] Creating Layer pool1
I0106 13:16:34.645045 13295 net.cpp:434] pool1 <- relu1_conv1
I0106 13:16:34.645051 13295 net.cpp:408] pool1 -> pooling1
I0106 13:16:34.645087 13295 net.cpp:150] Setting up pool1
I0106 13:16:34.645092 13295 net.cpp:157] Top shape: 64 32 9 9 (165888)
I0106 13:16:34.645097 13295 net.cpp:165] Memory required for data: 14409984
I0106 13:16:34.645099 13295 layer_factory.hpp:77] Creating layer reshape
I0106 13:16:34.645105 13295 net.cpp:100] Creating Layer reshape
I0106 13:16:34.645109 13295 net.cpp:434] reshape <- pooling1
I0106 13:16:34.645113 13295 net.cpp:408] reshape -> pool1
I0106 13:16:34.645138 13295 net.cpp:150] Setting up reshape
I0106 13:16:34.645143 13295 net.cpp:157] Top shape: 64 1 1 2592 (165888)
I0106 13:16:34.645146 13295 net.cpp:165] Memory required for data: 15073536
I0106 13:16:34.645149 13295 layer_factory.hpp:77] Creating layer reshape
I0106 13:16:34.645154 13295 net.cpp:100] Creating Layer reshape
I0106 13:16:34.645157 13295 net.cpp:434] reshape <- data2
I0106 13:16:34.645162 13295 net.cpp:408] reshape -> reshaped_data2
I0106 13:16:34.645179 13295 net.cpp:150] Setting up reshape
I0106 13:16:34.645184 13295 net.cpp:157] Top shape: 64 1 1 1600 (102400)
I0106 13:16:34.645187 13295 net.cpp:165] Memory required for data: 15483136
I0106 13:16:34.645190 13295 layer_factory.hpp:77] Creating layer concat
I0106 13:16:34.645196 13295 net.cpp:100] Creating Layer concat
I0106 13:16:34.645200 13295 net.cpp:434] concat <- pool1
I0106 13:16:34.645205 13295 net.cpp:434] concat <- reshaped_data2
I0106 13:16:34.645210 13295 net.cpp:408] concat -> concat_data
I0106 13:16:34.645226 13295 net.cpp:150] Setting up concat
I0106 13:16:34.645231 13295 net.cpp:157] Top shape: 64 1 1 4192 (268288)
I0106 13:16:34.645234 13295 net.cpp:165] Memory required for data: 16556288
I0106 13:16:34.645237 13295 layer_factory.hpp:77] Creating layer ip1
I0106 13:16:34.645247 13295 net.cpp:100] Creating Layer ip1
I0106 13:16:34.645251 13295 net.cpp:434] ip1 <- concat_data
I0106 13:16:34.645256 13295 net.cpp:408] ip1 -> ip1
I0106 13:16:34.658713 13295 net.cpp:150] Setting up ip1
I0106 13:16:34.658747 13295 net.cpp:157] Top shape: 64 500 (32000)
I0106 13:16:34.658751 13295 net.cpp:165] Memory required for data: 16684288
I0106 13:16:34.658763 13295 layer_factory.hpp:77] Creating layer relu4
I0106 13:16:34.658771 13295 net.cpp:100] Creating Layer relu4
I0106 13:16:34.658776 13295 net.cpp:434] relu4 <- ip1
I0106 13:16:34.658782 13295 net.cpp:408] relu4 -> relu4_ip1
I0106 13:16:34.658855 13295 net.cpp:150] Setting up relu4
I0106 13:16:34.658867 13295 net.cpp:157] Top shape: 64 500 (32000)
I0106 13:16:34.658871 13295 net.cpp:165] Memory required for data: 16812288
I0106 13:16:34.658876 13295 layer_factory.hpp:77] Creating layer ip2
I0106 13:16:34.658882 13295 net.cpp:100] Creating Layer ip2
I0106 13:16:34.658886 13295 net.cpp:434] ip2 <- relu4_ip1
I0106 13:16:34.658890 13295 net.cpp:408] ip2 -> ip2
I0106 13:16:34.659313 13295 net.cpp:150] Setting up ip2
I0106 13:16:34.659323 13295 net.cpp:157] Top shape: 64 5 (320)
I0106 13:16:34.659327 13295 net.cpp:165] Memory required for data: 16813568
I0106 13:16:34.659332 13295 layer_factory.hpp:77] Creating layer ip2_ip2_0_split
I0106 13:16:34.659338 13295 net.cpp:100] Creating Layer ip2_ip2_0_split
I0106 13:16:34.659343 13295 net.cpp:434] ip2_ip2_0_split <- ip2
I0106 13:16:34.659348 13295 net.cpp:408] ip2_ip2_0_split -> ip2_ip2_0_split_0
I0106 13:16:34.659353 13295 net.cpp:408] ip2_ip2_0_split -> ip2_ip2_0_split_1
I0106 13:16:34.659378 13295 net.cpp:150] Setting up ip2_ip2_0_split
I0106 13:16:34.659382 13295 net.cpp:157] Top shape: 64 5 (320)
I0106 13:16:34.659386 13295 net.cpp:157] Top shape: 64 5 (320)
I0106 13:16:34.659390 13295 net.cpp:165] Memory required for data: 16816128
I0106 13:16:34.659394 13295 layer_factory.hpp:77] Creating layer softmax
I0106 13:16:34.659399 13295 net.cpp:100] Creating Layer softmax
I0106 13:16:34.659404 13295 net.cpp:434] softmax <- ip2_ip2_0_split_0
I0106 13:16:34.659407 13295 net.cpp:408] softmax -> softmax
I0106 13:16:34.659597 13295 net.cpp:150] Setting up softmax
I0106 13:16:34.659605 13295 net.cpp:157] Top shape: 64 5 (320)
I0106 13:16:34.659608 13295 net.cpp:165] Memory required for data: 16817408
I0106 13:16:34.659612 13295 layer_factory.hpp:77] Creating layer loss
I0106 13:16:34.659618 13295 net.cpp:100] Creating Layer loss
I0106 13:16:34.659622 13295 net.cpp:434] loss <- ip2_ip2_0_split_1
I0106 13:16:34.659626 13295 net.cpp:434] loss <- label
I0106 13:16:34.659631 13295 net.cpp:408] loss -> loss
I0106 13:16:34.659643 13295 layer_factory.hpp:77] Creating layer loss
…
I0106 13:16:34.660409 13295 net.cpp:322] The NetState phase (1) differed from the phase (0) specified by a rule in layer softmax
I0106 13:16:34.660416 13295 net.cpp:322] The NetState phase (1) differed from the phase (0) specified by a rule in layer loss
I0106 13:16:34.660511 13295 net.cpp:58] Initializing net from parameters: 
name: "height_cnn"
state {
  phase: TEST
}
layer {
  name: "traindata"
  type: "Data"
  top: "data"
  top: "label"
  include {
    phase: TEST
  }
  data_param {
    source: "../caffe_01_convert/data2"
    batch_size: 64
    backend: LEVELDB
  }
}
layer {
  name: "slice_data"
  type: "Slice"
  bottom: "data"
  top: "data1"
  top: "data2"
  slice_param {
    slice_point: 10
    axis: 1
  }
}
layer {
  name: "conv1"
  type: "Convolution"
  bottom: "data1"
  top: "conv1"
  param {
    lr_mult: 0.1
  }
  param {
    lr_mult: 0.2
  }
  convolution_param {
    num_output: 32
    pad: 0
    kernel_size: 7
    stride: 2
    weight_filler {
      type: "xavier"
    }
    bias_filler {
      type: "constant"
    }
  }
}
layer {
  name: "relu1"
  type: "PReLU"
  bottom: "conv1"
  top: "relu1_conv1"
}
layer {
  name: "pool1"
  type: "Pooling"
  bottom: "relu1_conv1"
  top: "pooling1"
  pooling_param {
    pool: MAX
    kernel_size: 2
    stride: 2
  }
}
layer {
  name: "reshape"
  type: "Reshape"
  bottom: "pooling1"
  top: "pool1"
  reshape_param {
    shape {
      dim: 0
      dim: 1
      dim: 1
      dim: -1
    }
  }
}
layer {
  name: "reshape"
  type: "Reshape"
  bottom: "data2"
  top: "reshaped_data2"
  reshape_param {
    shape {
      dim: 0
      dim: 1
      dim: 1
      dim: -1
    }
  }
}
layer {
  name: "concat"
  type: "Concat"
  bottom: "pool1"
  bottom: "reshaped_data2"
  top: "concat_data"
  concat_param {
    axis: 3
  }
}
layer {
  name: "ip1"
  type: "InnerProduct"
  bottom: "concat_data"
  top: "ip1"
  inner_product_param {
    num_output: 500
    weight_filler {
      type: "xavier"
    }
    bias_filler {
      type: "constant"
    }
  }
}
layer {
  name: "relu4"
  type: "PReLU"
  bottom: "ip1"
  top: "relu4_ip1"
}
layer {
  name: "ip2"
  type: "InnerProduct"
  bottom: "relu4_ip1"
  top: "ip2"
  inner_product_param {
    num_output: 5
    weight_filler {
      type: "xavier"
    }
    bias_filler {
      type: "constant"
    }
  }
}
layer {
  name: "softmax"
  type: "Softmax"
  bottom: "ip2"
  top: "softmax"
  include {
    phase: TEST
  }
}
layer {
  name: "accuracy"
  type: "Accuracy"
  bottom: "softmax"
  bottom: "label"
  top: "accuracy"
  include {
    phase: TEST
  }
  accuracy_param {
    axis: 1
    ignore_label: -1
  }
}
I0106 13:16:34.660550 13295 layer_factory.hpp:77] Creating layer traindata
I0106 13:16:34.660619 13295 net.cpp:100] Creating Layer traindata
I0106 13:16:34.660625 13295 net.cpp:408] traindata -> data
I0106 13:16:34.660634 13295 net.cpp:408] traindata -> label
I0106 13:16:34.758496 13303 db_leveldb.cpp:18] Opened leveldb ../caffe_01_convert/data2
I0106 13:16:34.758934 13295 data_layer.cpp:41] output data size: 64,11,40,40
I0106 13:16:34.772203 13295 net.cpp:150] Setting up traindata
I0106 13:16:34.772245 13295 net.cpp:157] Top shape: 64 11 40 40 (1126400)
I0106 13:16:34.772253 13295 net.cpp:157] Top shape: 64 (64)
I0106 13:16:34.772258 13295 net.cpp:165] Memory required for data: 4505856
I0106 13:16:34.772265 13295 layer_factory.hpp:77] Creating layer slice_data
I0106 13:16:34.772281 13295 net.cpp:100] Creating Layer slice_data
I0106 13:16:34.772289 13295 net.cpp:434] slice_data <- data
I0106 13:16:34.772300 13295 net.cpp:408] slice_data -> data1
I0106 13:16:34.772312 13295 net.cpp:408] slice_data -> data2
I0106 13:16:34.772449 13295 net.cpp:150] Setting up slice_data
I0106 13:16:34.772459 13295 net.cpp:157] Top shape: 64 10 40 40 (1024000)
I0106 13:16:34.772464 13295 net.cpp:157] Top shape: 64 1 40 40 (102400)
I0106 13:16:34.772469 13295 net.cpp:165] Memory required for data: 9011456
I0106 13:16:34.772475 13295 layer_factory.hpp:77] Creating layer conv1
I0106 13:16:34.772498 13295 net.cpp:100] Creating Layer conv1
I0106 13:16:34.772503 13295 net.cpp:434] conv1 <- data1
I0106 13:16:34.772511 13295 net.cpp:408] conv1 -> conv1
I0106 13:16:34.775779 13295 net.cpp:150] Setting up conv1
I0106 13:16:34.775863 13295 net.cpp:157] Top shape: 64 32 17 17 (591872)
I0106 13:16:34.775884 13295 net.cpp:165] Memory required for data: 11378944
I0106 13:16:34.775907 13295 layer_factory.hpp:77] Creating layer relu1
I0106 13:16:34.775935 13295 net.cpp:100] Creating Layer relu1
I0106 13:16:34.775943 13295 net.cpp:434] relu1 <- conv1
I0106 13:16:34.775949 13295 net.cpp:408] relu1 -> relu1_conv1
I0106 13:16:34.776088 13295 net.cpp:150] Setting up relu1
I0106 13:16:34.776098 13295 net.cpp:157] Top shape: 64 32 17 17 (591872)
I0106 13:16:34.776103 13295 net.cpp:165] Memory required for data: 13746432
I0106 13:16:34.776111 13295 layer_factory.hpp:77] Creating layer pool1
I0106 13:16:34.776121 13295 net.cpp:100] Creating Layer pool1
I0106 13:16:34.776126 13295 net.cpp:434] pool1 <- relu1_conv1
I0106 13:16:34.776134 13295 net.cpp:408] pool1 -> pooling1
I0106 13:16:34.776178 13295 net.cpp:150] Setting up pool1
I0106 13:16:34.776186 13295 net.cpp:157] Top shape: 64 32 9 9 (165888)
I0106 13:16:34.776190 13295 net.cpp:165] Memory required for data: 14409984
I0106 13:16:34.776196 13295 layer_factory.hpp:77] Creating layer reshape
I0106 13:16:34.776207 13295 net.cpp:100] Creating Layer reshape
I0106 13:16:34.776212 13295 net.cpp:434] reshape <- pooling1
I0106 13:16:34.776218 13295 net.cpp:408] reshape -> pool1
I0106 13:16:34.776244 13295 net.cpp:150] Setting up reshape
I0106 13:16:34.776262 13295 net.cpp:157] Top shape: 64 1 1 2592 (165888)
I0106 13:16:34.776265 13295 net.cpp:165] Memory required for data: 15073536
I0106 13:16:34.776270 13295 layer_factory.hpp:77] Creating layer reshape
I0106 13:16:34.776276 13295 net.cpp:100] Creating Layer reshape
I0106 13:16:34.776281 13295 net.cpp:434] reshape <- data2
I0106 13:16:34.776290 13295 net.cpp:408] reshape -> reshaped_data2
I0106 13:16:34.776316 13295 net.cpp:150] Setting up reshape
I0106 13:16:34.776324 13295 net.cpp:157] Top shape: 64 1 1 1600 (102400)
I0106 13:16:34.776329 13295 net.cpp:165] Memory required for data: 15483136
I0106 13:16:34.776334 13295 layer_factory.hpp:77] Creating layer concat
I0106 13:16:34.776345 13295 net.cpp:100] Creating Layer concat
I0106 13:16:34.776350 13295 net.cpp:434] concat <- pool1
I0106 13:16:34.776355 13295 net.cpp:434] concat <- reshaped_data2
I0106 13:16:34.776362 13295 net.cpp:408] concat -> concat_data
I0106 13:16:34.776387 13295 net.cpp:150] Setting up concat
I0106 13:16:34.776394 13295 net.cpp:157] Top shape: 64 1 1 4192 (268288)
I0106 13:16:34.776398 13295 net.cpp:165] Memory required for data: 16556288
I0106 13:16:34.776403 13295 layer_factory.hpp:77] Creating layer ip1
I0106 13:16:34.776412 13295 net.cpp:100] Creating Layer ip1
I0106 13:16:34.776417 13295 net.cpp:434] ip1 <- concat_data
I0106 13:16:34.776479 13295 net.cpp:408] ip1 -> ip1
I0106 13:16:34.796133 13295 net.cpp:150] Setting up ip1
I0106 13:16:34.796200 13295 net.cpp:157] Top shape: 64 500 (32000)
I0106 13:16:34.796205 13295 net.cpp:165] Memory required for data: 16684288
I0106 13:16:34.796227 13295 layer_factory.hpp:77] Creating layer relu4
I0106 13:16:34.796253 13295 net.cpp:100] Creating Layer relu4
I0106 13:16:34.796259 13295 net.cpp:434] relu4 <- ip1
I0106 13:16:34.796267 13295 net.cpp:408] relu4 -> relu4_ip1
I0106 13:16:34.796360 13295 net.cpp:150] Setting up relu4
I0106 13:16:34.796367 13295 net.cpp:157] Top shape: 64 500 (32000)
I0106 13:16:34.796371 13295 net.cpp:165] Memory required for data: 16812288
I0106 13:16:34.796375 13295 layer_factory.hpp:77] Creating layer ip2
I0106 13:16:34.796389 13295 net.cpp:100] Creating Layer ip2
I0106 13:16:34.796393 13295 net.cpp:434] ip2 <- relu4_ip1
I0106 13:16:34.796398 13295 net.cpp:408] ip2 -> ip2
I0106 13:16:34.796532 13295 net.cpp:150] Setting up ip2
I0106 13:16:34.796540 13295 net.cpp:157] Top shape: 64 5 (320)
I0106 13:16:34.796542 13295 net.cpp:165] Memory required for data: 16813568
I0106 13:16:34.796548 13295 layer_factory.hpp:77] Creating layer softmax
I0106 13:16:34.796557 13295 net.cpp:100] Creating Layer softmax
I0106 13:16:34.796561 13295 net.cpp:434] softmax <- ip2
I0106 13:16:34.796566 13295 net.cpp:408] softmax -> softmax
I0106 13:16:34.796921 13295 net.cpp:150] Setting up softmax
I0106 13:16:34.796947 13295 net.cpp:157] Top shape: 64 5 (320)
I0106 13:16:34.796952 13295 net.cpp:165] Memory required for data: 16814848
I0106 13:16:34.796955 13295 layer_factory.hpp:77] Creating layer accuracy
I0106 13:16:34.796967 13295 net.cpp:100] Creating Layer accuracy
I0106 13:16:34.796972 13295 net.cpp:434] accuracy <- softmax
I0106 13:16:34.796977 13295 net.cpp:434] accuracy <- label
I0106 13:16:34.796983 13295 net.cpp:408] accuracy -> accuracy
…
