…
I0106 13:24:36.745967 13346 net.cpp:322] The NetState phase (0) differed from the phase (1) specified by a rule in layer softmax
I0106 13:24:36.745971 13346 net.cpp:322] The NetState phase (0) differed from the phase (1) specified by a rule in layer accuracy
I0106 13:24:36.746037 13346 net.cpp:58] Initializing net from parameters: 
name: "height_cnn"
state {
  phase: TRAIN
  level: 0
  stage: ""
}
layer {
  name: "traindata"
  type: "Data"
  top: "data"
  top: "label"
  include {
    phase: TRAIN
  }
  data_param {
    source: "../caffe_01_convert/data"
    batch_size: 64
    backend: LEVELDB
  }
}
layer {
  name: "slice_data"
  type: "Slice"
  bottom: "data"
  top: "data1"
  top: "data2"
  slice_param {
    slice_point: 10
    axis: 1
  }
}
layer {
  name: "conv1"
  type: "Convolution"
  bottom: "data1"
  top: "conv1"
  param {
    lr_mult: 0.1
  }
  param {
    lr_mult: 0.2
  }
  convolution_param {
    num_output: 32
    pad: 0
    kernel_size: 7
    stride: 2
    weight_filler {
      type: "xavier"
    }
    bias_filler {
      type: "constant"
    }
  }
}
layer {
  name: "relu1"
  type: "PReLU"
  bottom: "conv1"
  top: "relu1_conv1"
}
layer {
  name: "pool1"
  type: "Pooling"
  bottom: "relu1_conv1"
  top: "pooling1"
  pooling_param {
    pool: MAX
    kernel_size: 2
    stride: 2
  }
}
layer {
  name: "reshape"
  type: "Reshape"
  bottom: "pooling1"
  top: "pool1"
  reshape_param {
    shape {
      dim: 0
      dim: 1
      dim: 1
      dim: -1
    }
  }
}
layer {
  name: "reshape"
  type: "Reshape"
  bottom: "data2"
  top: "reshaped_data2"
  reshape_param {
    shape {
      dim: 0
      dim: 1
      dim: 1
      dim: -1
    }
  }
}
layer {
  name: "concat"
  type: "Concat"
  bottom: "pool1"
  bottom: "reshaped_data2"
  top: "concat_data"
  concat_param {
    axis: 3
  }
}
layer {
  name: "ip1"
  type: "InnerProduct"
  bottom: "concat_data"
  top: "ip1"
  inner_product_param {
    num_output: 500
    weight_filler {
      type: "xavier"
    }
    bias_filler {
      type: "constant"
    }
  }
}
layer {
  name: "relu4"
  type: "PReLU"
  bottom: "ip1"
  top: "relu4_ip1"
}
layer {
  name: "ip2"
  type: "InnerProduct"
  bottom: "relu4_ip1"
  top: "ip2"
  inner_product_param {
    num_output: 5
    weight_filler {
      type: "xavier"
    }
    bias_filler {
      type: "constant"
    }
  }
}
layer {
  name: "softmax"
  type: "Softmax"
  bottom: "ip2"
  top: "softmax"
  include {
    phase: TRAIN
  }
}
layer {
  name: "loss"
  type: "SoftmaxWithLoss"
  bottom: "ip2"
  bottom: "label"
  top: "loss"
  include {
    phase: TRAIN
  }
  loss_param {
    ignore_label: -1
  }
  softmax_param {
    axis: 1
  }
}
I0106 13:24:36.746112 13346 layer_factory.hpp:77] Creating layer traindata
I0106 13:24:36.746994 13346 net.cpp:100] Creating Layer traindata
I0106 13:24:36.747009 13346 net.cpp:408] traindata -> data
I0106 13:24:36.747028 13346 net.cpp:408] traindata -> label
I0106 13:24:38.130245 13352 db_leveldb.cpp:18] Opened leveldb ../caffe_01_convert/data
I0106 13:24:38.130605 13346 data_layer.cpp:41] output data size: 64,11,40,40
I0106 13:24:38.133272 13346 net.cpp:150] Setting up traindata
I0106 13:24:38.133347 13346 net.cpp:157] Top shape: 64 11 40 40 (1126400)
I0106 13:24:38.133357 13346 net.cpp:157] Top shape: 64 (64)
I0106 13:24:38.133361 13346 net.cpp:165] Memory required for data: 4505856
I0106 13:24:38.133374 13346 layer_factory.hpp:77] Creating layer slice_data
I0106 13:24:38.133417 13346 net.cpp:100] Creating Layer slice_data
I0106 13:24:38.133435 13346 net.cpp:434] slice_data <- data
I0106 13:24:38.133450 13346 net.cpp:408] slice_data -> data1
I0106 13:24:38.133463 13346 net.cpp:408] slice_data -> data2
I0106 13:24:38.133476 13346 net.cpp:150] Setting up slice_data
I0106 13:24:38.133482 13346 net.cpp:157] Top shape: 64 10 40 40 (1024000)
I0106 13:24:38.133487 13346 net.cpp:157] Top shape: 64 1 40 40 (102400)
I0106 13:24:38.133491 13346 net.cpp:165] Memory required for data: 9011456
I0106 13:24:38.133496 13346 layer_factory.hpp:77] Creating layer conv1
I0106 13:24:38.133515 13346 net.cpp:100] Creating Layer conv1
I0106 13:24:38.133520 13346 net.cpp:434] conv1 <- data1
I0106 13:24:38.133527 13346 net.cpp:408] conv1 -> conv1
I0106 13:24:38.135706 13354 blocking_queue.cpp:50] Waiting for data
I0106 13:24:38.260562 13346 net.cpp:150] Setting up conv1
I0106 13:24:38.260596 13346 net.cpp:157] Top shape: 64 32 17 17 (591872)
I0106 13:24:38.260601 13346 net.cpp:165] Memory required for data: 11378944
I0106 13:24:38.260614 13346 layer_factory.hpp:77] Creating layer relu1
I0106 13:24:38.260624 13346 net.cpp:100] Creating Layer relu1
I0106 13:24:38.260629 13346 net.cpp:434] relu1 <- conv1
I0106 13:24:38.260635 13346 net.cpp:408] relu1 -> relu1_conv1
I0106 13:24:38.260660 13346 net.cpp:150] Setting up relu1
I0106 13:24:38.260666 13346 net.cpp:157] Top shape: 64 32 17 17 (591872)
I0106 13:24:38.260669 13346 net.cpp:165] Memory required for data: 13746432
I0106 13:24:38.260675 13346 layer_factory.hpp:77] Creating layer pool1
I0106 13:24:38.260682 13346 net.cpp:100] Creating Layer pool1
I0106 13:24:38.260686 13346 net.cpp:434] pool1 <- relu1_conv1
I0106 13:24:38.260691 13346 net.cpp:408] pool1 -> pooling1
I0106 13:24:38.260709 13346 net.cpp:150] Setting up pool1
I0106 13:24:38.260713 13346 net.cpp:157] Top shape: 64 32 9 9 (165888)
I0106 13:24:38.260717 13346 net.cpp:165] Memory required for data: 14409984
I0106 13:24:38.260720 13346 layer_factory.hpp:77] Creating layer reshape
I0106 13:24:38.260730 13346 net.cpp:100] Creating Layer reshape
I0106 13:24:38.260735 13346 net.cpp:434] reshape <- pooling1
I0106 13:24:38.260740 13346 net.cpp:408] reshape -> pool1
I0106 13:24:38.260751 13346 net.cpp:150] Setting up reshape
I0106 13:24:38.260756 13346 net.cpp:157] Top shape: 64 1 1 2592 (165888)
I0106 13:24:38.260758 13346 net.cpp:165] Memory required for data: 15073536
I0106 13:24:38.260762 13346 layer_factory.hpp:77] Creating layer reshape
I0106 13:24:38.260767 13346 net.cpp:100] Creating Layer reshape
I0106 13:24:38.260771 13346 net.cpp:434] reshape <- data2
I0106 13:24:38.260776 13346 net.cpp:408] reshape -> reshaped_data2
I0106 13:24:38.260782 13346 net.cpp:150] Setting up reshape
I0106 13:24:38.260787 13346 net.cpp:157] Top shape: 64 1 1 1600 (102400)
I0106 13:24:38.260790 13346 net.cpp:165] Memory required for data: 15483136
I0106 13:24:38.260793 13346 layer_factory.hpp:77] Creating layer concat
I0106 13:24:38.260799 13346 net.cpp:100] Creating Layer concat
I0106 13:24:38.260803 13346 net.cpp:434] concat <- pool1
I0106 13:24:38.260807 13346 net.cpp:434] concat <- reshaped_data2
I0106 13:24:38.260812 13346 net.cpp:408] concat -> concat_data
I0106 13:24:38.260819 13346 net.cpp:150] Setting up concat
I0106 13:24:38.260823 13346 net.cpp:157] Top shape: 64 1 1 4192 (268288)
I0106 13:24:38.260826 13346 net.cpp:165] Memory required for data: 16556288
I0106 13:24:38.260830 13346 layer_factory.hpp:77] Creating layer ip1
I0106 13:24:38.260836 13346 net.cpp:100] Creating Layer ip1
I0106 13:24:38.260840 13346 net.cpp:434] ip1 <- concat_data
I0106 13:24:38.260845 13346 net.cpp:408] ip1 -> ip1
I0106 13:24:38.272866 13346 net.cpp:150] Setting up ip1
I0106 13:24:38.272897 13346 net.cpp:157] Top shape: 64 500 (32000)
I0106 13:24:38.272902 13346 net.cpp:165] Memory required for data: 16684288
I0106 13:24:38.272913 13346 layer_factory.hpp:77] Creating layer relu4
I0106 13:24:38.272922 13346 net.cpp:100] Creating Layer relu4
I0106 13:24:38.272927 13346 net.cpp:434] relu4 <- ip1
I0106 13:24:38.272931 13346 net.cpp:408] relu4 -> relu4_ip1
I0106 13:24:38.272954 13346 net.cpp:150] Setting up relu4
I0106 13:24:38.272966 13346 net.cpp:157] Top shape: 64 500 (32000)
I0106 13:24:38.272970 13346 net.cpp:165] Memory required for data: 16812288
I0106 13:24:38.272974 13346 layer_factory.hpp:77] Creating layer ip2
I0106 13:24:38.272980 13346 net.cpp:100] Creating Layer ip2
I0106 13:24:38.272984 13346 net.cpp:434] ip2 <- relu4_ip1
I0106 13:24:38.272989 13346 net.cpp:408] ip2 -> ip2
I0106 13:24:38.273015 13346 net.cpp:150] Setting up ip2
I0106 13:24:38.273018 13346 net.cpp:157] Top shape: 64 5 (320)
I0106 13:24:38.273022 13346 net.cpp:165] Memory required for data: 16813568
I0106 13:24:38.273027 13346 layer_factory.hpp:77] Creating layer ip2_ip2_0_split
I0106 13:24:38.273032 13346 net.cpp:100] Creating Layer ip2_ip2_0_split
I0106 13:24:38.273036 13346 net.cpp:434] ip2_ip2_0_split <- ip2
I0106 13:24:38.273041 13346 net.cpp:408] ip2_ip2_0_split -> ip2_ip2_0_split_0
I0106 13:24:38.273046 13346 net.cpp:408] ip2_ip2_0_split -> ip2_ip2_0_split_1
I0106 13:24:38.273057 13346 net.cpp:150] Setting up ip2_ip2_0_split
I0106 13:24:38.273061 13346 net.cpp:157] Top shape: 64 5 (320)
I0106 13:24:38.273066 13346 net.cpp:157] Top shape: 64 5 (320)
I0106 13:24:38.273068 13346 net.cpp:165] Memory required for data: 16816128
I0106 13:24:38.273072 13346 layer_factory.hpp:77] Creating layer softmax
I0106 13:24:38.273077 13346 net.cpp:100] Creating Layer softmax
I0106 13:24:38.273082 13346 net.cpp:434] softmax <- ip2_ip2_0_split_0
I0106 13:24:38.273085 13346 net.cpp:408] softmax -> softmax
I0106 13:24:38.273267 13346 net.cpp:150] Setting up softmax
I0106 13:24:38.273274 13346 net.cpp:157] Top shape: 64 5 (320)
I0106 13:24:38.273278 13346 net.cpp:165] Memory required for data: 16817408
I0106 13:24:38.273283 13346 layer_factory.hpp:77] Creating layer loss
I0106 13:24:38.273289 13346 net.cpp:100] Creating Layer loss
I0106 13:24:38.273293 13346 net.cpp:434] loss <- ip2_ip2_0_split_1
I0106 13:24:38.273298 13346 net.cpp:434] loss <- label
I0106 13:24:38.273303 13346 net.cpp:408] loss -> loss
I0106 13:24:38.273315 13346 layer_factory.hpp:77] Creating layer loss
…
I0106 13:24:38.274075 13346 net.cpp:322] The NetState phase (1) differed from the phase (0) specified by a rule in layer softmax
I0106 13:24:38.274082 13346 net.cpp:322] The NetState phase (1) differed from the phase (0) specified by a rule in layer loss
I0106 13:24:38.274178 13346 net.cpp:58] Initializing net from parameters: 
name: "height_cnn"
state {
  phase: TEST
}
layer {
  name: "traindata"
  type: "Data"
  top: "data"
  top: "label"
  include {
    phase: TEST
  }
  data_param {
    source: "../caffe_01_convert/data2"
    batch_size: 64
    backend: LEVELDB
  }
}
layer {
  name: "slice_data"
  type: "Slice"
  bottom: "data"
  top: "data1"
  top: "data2"
  slice_param {
    slice_point: 10
    axis: 1
  }
}
layer {
  name: "conv1"
  type: "Convolution"
  bottom: "data1"
  top: "conv1"
  param {
    lr_mult: 0.1
  }
  param {
    lr_mult: 0.2
  }
  convolution_param {
    num_output: 32
    pad: 0
    kernel_size: 7
    stride: 2
    weight_filler {
      type: "xavier"
    }
    bias_filler {
      type: "constant"
    }
  }
}
layer {
  name: "relu1"
  type: "PReLU"
  bottom: "conv1"
  top: "relu1_conv1"
}
layer {
  name: "pool1"
  type: "Pooling"
  bottom: "relu1_conv1"
  top: "pooling1"
  pooling_param {
    pool: MAX
    kernel_size: 2
    stride: 2
  }
}
layer {
  name: "reshape"
  type: "Reshape"
  bottom: "pooling1"
  top: "pool1"
  reshape_param {
    shape {
      dim: 0
      dim: 1
      dim: 1
      dim: -1
    }
  }
}
layer {
  name: "reshape"
  type: "Reshape"
  bottom: "data2"
  top: "reshaped_data2"
  reshape_param {
    shape {
      dim: 0
      dim: 1
      dim: 1
      dim: -1
    }
  }
}
layer {
  name: "concat"
  type: "Concat"
  bottom: "pool1"
  bottom: "reshaped_data2"
  top: "concat_data"
  concat_param {
    axis: 3
  }
}
layer {
  name: "ip1"
  type: "InnerProduct"
  bottom: "concat_data"
  top: "ip1"
  inner_product_param {
    num_output: 500
    weight_filler {
      type: "xavier"
    }
    bias_filler {
      type: "constant"
    }
  }
}
layer {
  name: "relu4"
  type: "PReLU"
  bottom: "ip1"
  top: "relu4_ip1"
}
layer {
  name: "ip2"
  type: "InnerProduct"
  bottom: "relu4_ip1"
  top: "ip2"
  inner_product_param {
    num_output: 5
    weight_filler {
      type: "xavier"
    }
    bias_filler {
      type: "constant"
    }
  }
}
layer {
  name: "softmax"
  type: "Softmax"
  bottom: "ip2"
  top: "softmax"
  include {
    phase: TEST
  }
}
layer {
  name: "accuracy"
  type: "Accuracy"
  bottom: "softmax"
  bottom: "label"
  top: "accuracy"
  include {
    phase: TEST
  }
  accuracy_param {
    axis: 1
    ignore_label: -1
  }
}
I0106 13:24:38.274217 13346 layer_factory.hpp:77] Creating layer traindata
I0106 13:24:38.274291 13346 net.cpp:100] Creating Layer traindata
I0106 13:24:38.274298 13346 net.cpp:408] traindata -> data
I0106 13:24:38.274307 13346 net.cpp:408] traindata -> label
I0106 13:24:38.373041 13355 db_leveldb.cpp:18] Opened leveldb ../caffe_01_convert/data2
I0106 13:24:38.373423 13346 data_layer.cpp:41] output data size: 64,11,40,40
I0106 13:24:38.376561 13346 net.cpp:150] Setting up traindata
I0106 13:24:38.376608 13346 net.cpp:157] Top shape: 64 11 40 40 (1126400)
I0106 13:24:38.376616 13346 net.cpp:157] Top shape: 64 (64)
I0106 13:24:38.376621 13346 net.cpp:165] Memory required for data: 4505856
I0106 13:24:38.376631 13346 layer_factory.hpp:77] Creating layer slice_data
I0106 13:24:38.376652 13346 net.cpp:100] Creating Layer slice_data
I0106 13:24:38.376658 13346 net.cpp:434] slice_data <- data
I0106 13:24:38.376667 13346 net.cpp:408] slice_data -> data1
I0106 13:24:38.376680 13346 net.cpp:408] slice_data -> data2
I0106 13:24:38.376694 13346 net.cpp:150] Setting up slice_data
I0106 13:24:38.376701 13346 net.cpp:157] Top shape: 64 10 40 40 (1024000)
I0106 13:24:38.376708 13346 net.cpp:157] Top shape: 64 1 40 40 (102400)
I0106 13:24:38.376711 13346 net.cpp:165] Memory required for data: 9011456
I0106 13:24:38.376718 13346 layer_factory.hpp:77] Creating layer conv1
I0106 13:24:38.376730 13346 net.cpp:100] Creating Layer conv1
I0106 13:24:38.376736 13346 net.cpp:434] conv1 <- data1
I0106 13:24:38.376744 13346 net.cpp:408] conv1 -> conv1
I0106 13:24:38.377816 13346 net.cpp:150] Setting up conv1
I0106 13:24:38.377851 13346 net.cpp:157] Top shape: 64 32 17 17 (591872)
I0106 13:24:38.377867 13346 net.cpp:165] Memory required for data: 11378944
I0106 13:24:38.377882 13346 layer_factory.hpp:77] Creating layer relu1
I0106 13:24:38.377892 13346 net.cpp:100] Creating Layer relu1
I0106 13:24:38.377898 13346 net.cpp:434] relu1 <- conv1
I0106 13:24:38.377907 13346 net.cpp:408] relu1 -> relu1_conv1
I0106 13:24:38.377939 13346 net.cpp:150] Setting up relu1
I0106 13:24:38.377948 13346 net.cpp:157] Top shape: 64 32 17 17 (591872)
I0106 13:24:38.377952 13346 net.cpp:165] Memory required for data: 13746432
I0106 13:24:38.377961 13346 layer_factory.hpp:77] Creating layer pool1
I0106 13:24:38.377972 13346 net.cpp:100] Creating Layer pool1
I0106 13:24:38.377977 13346 net.cpp:434] pool1 <- relu1_conv1
I0106 13:24:38.377985 13346 net.cpp:408] pool1 -> pooling1
I0106 13:24:38.377995 13346 net.cpp:150] Setting up pool1
I0106 13:24:38.378007 13346 net.cpp:157] Top shape: 64 32 9 9 (165888)
I0106 13:24:38.378011 13346 net.cpp:165] Memory required for data: 14409984
I0106 13:24:38.378016 13346 layer_factory.hpp:77] Creating layer reshape
I0106 13:24:38.378026 13346 net.cpp:100] Creating Layer reshape
I0106 13:24:38.378031 13346 net.cpp:434] reshape <- pooling1
I0106 13:24:38.378036 13346 net.cpp:408] reshape -> pool1
I0106 13:24:38.378054 13346 net.cpp:150] Setting up reshape
I0106 13:24:38.378062 13346 net.cpp:157] Top shape: 64 1 1 2592 (165888)
I0106 13:24:38.378067 13346 net.cpp:165] Memory required for data: 15073536
I0106 13:24:38.378070 13346 layer_factory.hpp:77] Creating layer reshape
I0106 13:24:38.378077 13346 net.cpp:100] Creating Layer reshape
I0106 13:24:38.378082 13346 net.cpp:434] reshape <- data2
I0106 13:24:38.378089 13346 net.cpp:408] reshape -> reshaped_data2
I0106 13:24:38.378100 13346 net.cpp:150] Setting up reshape
I0106 13:24:38.378108 13346 net.cpp:157] Top shape: 64 1 1 1600 (102400)
I0106 13:24:38.378111 13346 net.cpp:165] Memory required for data: 15483136
I0106 13:24:38.378116 13346 layer_factory.hpp:77] Creating layer concat
I0106 13:24:38.378124 13346 net.cpp:100] Creating Layer concat
I0106 13:24:38.378130 13346 net.cpp:434] concat <- pool1
I0106 13:24:38.378136 13346 net.cpp:434] concat <- reshaped_data2
I0106 13:24:38.378142 13346 net.cpp:408] concat -> concat_data
I0106 13:24:38.378151 13346 net.cpp:150] Setting up concat
I0106 13:24:38.378159 13346 net.cpp:157] Top shape: 64 1 1 4192 (268288)
I0106 13:24:38.378163 13346 net.cpp:165] Memory required for data: 16556288
I0106 13:24:38.378167 13346 layer_factory.hpp:77] Creating layer ip1
I0106 13:24:38.378185 13346 net.cpp:100] Creating Layer ip1
I0106 13:24:38.378191 13346 net.cpp:434] ip1 <- concat_data
I0106 13:24:38.378199 13346 net.cpp:408] ip1 -> ip1
I0106 13:24:38.393816 13346 net.cpp:150] Setting up ip1
I0106 13:24:38.393862 13346 net.cpp:157] Top shape: 64 500 (32000)
I0106 13:24:38.393867 13346 net.cpp:165] Memory required for data: 16684288
I0106 13:24:38.393887 13346 layer_factory.hpp:77] Creating layer relu4
I0106 13:24:38.393908 13346 net.cpp:100] Creating Layer relu4
I0106 13:24:38.393913 13346 net.cpp:434] relu4 <- ip1
I0106 13:24:38.393919 13346 net.cpp:408] relu4 -> relu4_ip1
I0106 13:24:38.393939 13346 net.cpp:150] Setting up relu4
I0106 13:24:38.393944 13346 net.cpp:157] Top shape: 64 500 (32000)
I0106 13:24:38.393949 13346 net.cpp:165] Memory required for data: 16812288
I0106 13:24:38.393954 13346 layer_factory.hpp:77] Creating layer ip2
I0106 13:24:38.393960 13346 net.cpp:100] Creating Layer ip2
I0106 13:24:38.393965 13346 net.cpp:434] ip2 <- relu4_ip1
I0106 13:24:38.393985 13346 net.cpp:408] ip2 -> ip2
I0106 13:24:38.394019 13346 net.cpp:150] Setting up ip2
I0106 13:24:38.394024 13346 net.cpp:157] Top shape: 64 5 (320)
I0106 13:24:38.394027 13346 net.cpp:165] Memory required for data: 16813568
I0106 13:24:38.394032 13346 layer_factory.hpp:77] Creating layer softmax
I0106 13:24:38.394038 13346 net.cpp:100] Creating Layer softmax
I0106 13:24:38.394042 13346 net.cpp:434] softmax <- ip2
I0106 13:24:38.394047 13346 net.cpp:408] softmax -> softmax
I0106 13:24:38.394692 13346 net.cpp:150] Setting up softmax
I0106 13:24:38.394719 13346 net.cpp:157] Top shape: 64 5 (320)
I0106 13:24:38.394723 13346 net.cpp:165] Memory required for data: 16814848
I0106 13:24:38.394727 13346 layer_factory.hpp:77] Creating layer accuracy
I0106 13:24:38.394736 13346 net.cpp:100] Creating Layer accuracy
I0106 13:24:38.394740 13346 net.cpp:434] accuracy <- softmax
I0106 13:24:38.394744 13346 net.cpp:434] accuracy <- label
I0106 13:24:38.394749 13346 net.cpp:408] accuracy -> accuracy
…
